…
 'task_names': ['logSolubility'],
 'test': False,
 'test_fold_index': None,
 'train_data_size': None,
 'undirected': False,
 'use_input_features': True,
 'val_fold_index': None,
 'warmup_epochs': 2.0}
Setting molecule featurization parameters to default.
Loading data
Number of tasks = 1
Fold 0
Splitting data with seed 0
Total size = 7,985 | train size = 6,388 | val size = 798 | test size = 799
Fitting scaler
Building model 0
MoleculeModel(
  (encoder): MPN(
    (encoder): ModuleList(
      (0): MPNEncoder(
        (dropout_layer): Dropout(p=0.1, inplace=False)
        (act_func): ReLU()
        (W_i): Linear(in_features=147, out_features=600, bias=False)
        (W_h): Linear(in_features=600, out_features=600, bias=False)
        (W_o): Linear(in_features=733, out_features=600, bias=True)
      )
    )
  )
  (ffn): Sequential(
    (0): Dropout(p=0.1, inplace=False)
    (1): Linear(in_features=800, out_features=600, bias=True)
    (2): ReLU()
    (3): Dropout(p=0.1, inplace=False)
    (4): Linear(in_features=600, out_features=1, bias=True)
  )
)
Number of parameters = 1,370,401
Moving model to cuda
Epoch 0
Loss = 9.3535e-01, PNorm = 46.7631, GNorm = 3.9660, lr_0 = 1.3898e-04
Loss = 6.5957e-01, PNorm = 46.7702, GNorm = 4.4482, lr_0 = 1.7441e-04
Loss = 5.3066e-01, PNorm = 46.7771, GNorm = 2.7264, lr_0 = 2.0984e-04
Loss = 5.1974e-01, PNorm = 46.7828, GNorm = 5.7363, lr_0 = 2.4528e-04
Loss = 4.4476e-01, PNorm = 46.7902, GNorm = 1.6664, lr_0 = 2.8071e-04
…
 'task_names': ['logSolubility'],
 'test': False,
 'test_fold_index': None,
 'train_data_size': None,
 'undirected': False,
 'use_input_features': True,
 'val_fold_index': None,
 'warmup_epochs': 11}
Setting molecule featurization parameters to default.
Loading data
Number of tasks = 1
Fold 0
Splitting data with seed 0
Total size = 7,985 | train size = 6,388 | val size = 798 | test size = 799
Fitting scaler
Building model 0
MoleculeModel(
  (encoder): MPN(
    (encoder): ModuleList(
      (0): MPNEncoder(
        (dropout_layer): Dropout(p=0.1, inplace=False)
        (act_func): SELU()
        (W_i): Linear(in_features=147, out_features=2100, bias=False)
        (W_h): Linear(in_features=2100, out_features=2100, bias=False)
        (W_o): Linear(in_features=2233, out_features=2100, bias=True)
      )
    )
  )
  (ffn): Sequential(
    (0): Dropout(p=0.1, inplace=False)
    (1): Linear(in_features=2300, out_features=1600, bias=True)
    (2): SELU()
    (3): Dropout(p=0.1, inplace=False)
    (4): Linear(in_features=1600, out_features=1, bias=True)
  )
)
Number of parameters = 13,095,401
Moving model to cuda
Epoch 0
Loss = 2.1966e+00, PNorm = 80.1654, GNorm = 281.4531, lr_0 = 2.5721e-08
Loss = 2.2689e+00, PNorm = 80.1654, GNorm = 170.1583, lr_0 = 4.6099e-08
Loss = 1.9073e+00, PNorm = 80.1654, GNorm = 153.5525, lr_0 = 6.6476e-08
Loss = 1.8010e+00, PNorm = 80.1654, GNorm = 91.4888, lr_0 = 8.6854e-08
…
 'test': False,
 'test_fold_index': None,
 'train_data_size': None,
 'undirected': False,
 'use_input_features': True,
 'val_fold_index': None,
 'warmup_epochs': 8}
Setting molecule featurization parameters to default.
Loading data
Number of tasks = 1
Fold 0
Splitting data with seed 0
Total size = 7,985 | train size = 6,388 | val size = 798 | test size = 799
Fitting scaler
Building model 0
MoleculeModel(
  (encoder): MPN(
    (encoder): ModuleList(
      (0): MPNEncoder(
        (dropout_layer): Dropout(p=0.30000000000000004, inplace=False)
        (act_func): PReLU(num_parameters=1)
        (W_i): Linear(in_features=147, out_features=800, bias=False)
        (W_h): Linear(in_features=800, out_features=800, bias=False)
        (W_o): Linear(in_features=933, out_features=800, bias=True)
      )
    )
  )
  (ffn): Sequential(
    (0): Dropout(p=0.30000000000000004, inplace=False)
    (1): Linear(in_features=1000, out_features=2300, bias=True)
    (2): PReLU(num_parameters=1)
    (3): Dropout(p=0.30000000000000004, inplace=False)
    (4): Linear(in_features=2300, out_features=2300, bias=True)
    (5): PReLU(num_parameters=1)
    (6): Dropout(p=0.30000000000000004, inplace=False)
    (7): Linear(in_features=2300, out_features=1, bias=True)
  )
)
Number of parameters = 9,102,503
Moving model to cuda
Epoch 0
Loss = 1.2743e+01, PNorm = 74.8795, GNorm = 488.8887, lr_0 = 7.8940e-07
Loss = 1.4144e+01, PNorm = 74.8795, GNorm = 1872.0466, lr_0 = 1.1405e-06
Loss = 1.3646e+01, PNorm = 74.8794, GNorm = 896.6390, lr_0 = 1.4915e-06
Loss = 1.2333e+01, PNorm = 74.8794, GNorm = 316.0563, lr_0 = 1.8426e-06
…
 'task_names': ['logSolubility'],
 'test': False,
 'test_fold_index': None,
 'train_data_size': None,
 'undirected': False,
 'use_input_features': True,
 'val_fold_index': None,
 'warmup_epochs': 2.0}
Setting molecule featurization parameters to default.
Loading data
Number of tasks = 1
Fold 0
Splitting data with seed 0
Total size = 7,985 | train size = 6,388 | val size = 798 | test size = 799
Fitting scaler
Building model 0
MoleculeModel(
  (encoder): MPN(
    (encoder): ModuleList(
      (0): MPNEncoder(
        (dropout_layer): Dropout(p=0.0, inplace=False)
        (act_func): ReLU()
        (W_i): Linear(in_features=147, out_features=300, bias=False)
        (W_h): Linear(in_features=300, out_features=300, bias=False)
        (W_o): Linear(in_features=433, out_features=300, bias=True)
      )
    )
  )
  (ffn): Sequential(
    (0): Dropout(p=0.0, inplace=False)
    (1): Linear(in_features=500, out_features=300, bias=True)
    (2): ReLU()
    (3): Dropout(p=0.0, inplace=False)
    (4): Linear(in_features=300, out_features=1, bias=True)
  )
)
Number of parameters = 415,201
Moving model to cuda
Epoch 0
Loss = 9.0869e-01, PNorm = 35.0677, GNorm = 2.4882, lr_0 = 1.3898e-04
Loss = 6.6383e-01, PNorm = 35.0730, GNorm = 3.3488, lr_0 = 1.7441e-04
Loss = 5.1808e-01, PNorm = 35.0795, GNorm = 1.7902, lr_0 = 2.0984e-04
Loss = 4.3415e-01, PNorm = 35.0863, GNorm = 2.7534, lr_0 = 2.4528e-04
Loss = 4.3171e-01, PNorm = 35.0935, GNorm = 2.0755, lr_0 = 2.8071e-04
…
 'task_names': ['logSolubility'],
 'test': False,
 'test_fold_index': None,
 'train_data_size': None,
 'undirected': False,
 'use_input_features': True,
 'val_fold_index': None,
 'warmup_epochs': 10}
Setting molecule featurization parameters to default.
Loading data
Number of tasks = 1
Fold 0
Splitting data with seed 0
Total size = 7,985 | train size = 6,388 | val size = 798 | test size = 799
Fitting scaler
Building model 0
MoleculeModel(
  (encoder): MPN(
    (encoder): ModuleList(
      (0): MPNEncoder(
        (dropout_layer): Dropout(p=0.15000000000000002, inplace=False)
        (act_func): Tanh()
        (W_i): Linear(in_features=147, out_features=2200, bias=False)
        (W_h): Linear(in_features=2200, out_features=2200, bias=False)
        (W_o): Linear(in_features=2333, out_features=2200, bias=True)
      )
    )
  )
  (ffn): Sequential(
    (0): Dropout(p=0.15000000000000002, inplace=False)
    (1): Linear(in_features=2400, out_features=1100, bias=True)
    (2): Tanh()
    (3): Dropout(p=0.15000000000000002, inplace=False)
    (4): Linear(in_features=1100, out_features=1100, bias=True)
    (5): Tanh()
    (6): Dropout(p=0.15000000000000002, inplace=False)
    (7): Linear(in_features=1100, out_features=1, bias=True)
  )
)
Number of parameters = 14,153,701
Moving model to cuda
Epoch 0
Loss = 5.6251e+00, PNorm = 85.7414, GNorm = 21.1760, lr_0 = 1.7943e-04
Loss = 2.1163e+00, PNorm = 85.7485, GNorm = 54.7992, lr_0 = 2.9258e-04
Loss = 1.1962e+00, PNorm = 85.7577, GNorm = 22.5884, lr_0 = 4.0573e-04
Validation rmse = 2.075451
Epoch 1
Loss = 1.0156e+00, PNorm = 85.7674, GNorm = 17.4549, lr_0 = 5.3020e-04
…
